$phone: "Only screen and (max-width : 768px)";
$pad: "Only screen and (max-width : 1569px)";
$desktop: "Only screen and (min-width : 1570px)";

@media #{$desktop} {
  .skill {
    font-family: "Do Hyeon", sans-serif;
    background-color: #fff;
    display: flex;
    flex-direction: column;
    align-items: center;
    height: 100vh;
    position: relative;
    .location_name {
      color: #2471d8;
      font-size: 50px;
      position: absolute;
      top: 80px;
    }
    .skill_container {
      display: flex;
      align-items: center;
      height: 100vh;

      .skill_me {
        display: flex;
        .skill_box {
          display: flex;
          height: 400px;
          .skill_detail {
            padding: 0 20px;
            // width: 200px;
            // border-left: 2px solid #999999;
            text-align: center;
            img {
              width: 150px;
              height: 150px;
              background-color: black;
              border-radius: 50%;
            }

            h1 {
              color: #2471d8;
              text-transform: uppercase;
              font-size: 30px;
              white-space: nowrap;
            }

            .skill_set {
              display: flex;
              .skill_set_box {
                .noSvg {
                  border: 1px solid black;
                  border-radius: 50%;
                  width: 100px;
                  height: 100px;
                  // padding: 15px;
                  margin: 15px;
                  p {
                    font-size: 20px;
                    line-height: 100px;
                  }
                }
                svg {
                  font-size: 70px;
                  border: 1px solid black;
                  border-radius: 50%;
                  padding: 15px;
                  margin: 15px;
                }
                p {
                  font-size: 20px;
                  margin: 0;
                  white-space: nowrap;
                  color: black !important;
                }
              }

              .skill_set_box.html {
                color: #ff7000;
                svg {
                  border: 1px solid #ff7000;
                }
              }
              .skill_set_box.css {
                color: #0055ff;
                svg {
                  border: 1px solid #0055ff;
                }
              }
              .skill_set_box.js {
                color: #dbde0b;
                svg {
                  border: 1px solid #dbde0b;
                }
              }
              .skill_set_box.react {
                color: #00bdff;
                svg {
                  border: 1px solid #00bdff;
                }
              }
              .skill_set_box.scss {
                color: #ff00b2;
                svg {
                  border: 1px solid #ff00b2;
                }
              }
              .skill_set_box.redux {
                color: #b900ff;
                svg {
                  border: 1px solid #b900ff;
                }
              }
              .skill_set_box.node {
                color: #0fff00;
                svg {
                  border: 1px solid #0fff00;
                }
              }
              .skill_set_box.mysql {
                color: #0b48de;
                svg {
                  border: 1px solid #0b48de;
                }
              }
            }
          }
          .skill_detail.first {
            border: none !important;
          }
          .skill_detail.second {
            padding: 0 20px !important;
          }
        }
      }
    }
    .skill_btn {
      position: absolute;
      top: 80%;
      // left: 60%;
      // transform: translate(-50%, -50%);
      background-color: transparent;
      // border: none;
      border: 2px solid #2471d8;
      padding: 5px 7px;
      border-radius: 50%;
      outline: none;
      cursor: pointer;
      font-size: 28px;
      line-height: 26px;
      // animation: blink 1s infinite;

      animation: down-motion 1s infinite;
      svg {
        color: #2471d8;
      }
    }
  }
}

@media #{$pad} {
  .skill {
    font-family: "Do Hyeon", sans-serif;

    background-color: #fff;
    position: relative;
    display: flex;
    justify-content: center;
    margin-top: 20px;
    padding-top: 20px;
    // align-items: center;
    height: 100vh;
    .location_name {
      color: #2471d8;
      font-size: 50px;
      position: absolute;
      top: 0px;
    }
    .skill_container {
      display: flex;
      align-items: center;
      height: 100vh;

      .skill_me {
        display: flex;
        flex-direction: column;
        align-items: center;
        .skill_box {
          padding-top: 50px;
          display: flex;
          height: 400px;
          .skill_detail {
            padding: 0 100px;
            // width: 200px;
            // border-left: 2px solid #999999;
            text-align: center;
            img {
              width: 150px;
              height: 150px;
              background-color: black;
              border-radius: 50%;
            }

            h1 {
              color: #2471d8;
              text-transform: uppercase;
              font-size: 30px;
              white-space: nowrap;
            }

            .skill_set {
              display: flex;
              .skill_set_box {
                .noSvg {
                  border: 1px solid black;
                  border-radius: 50%;
                  width: 100px;
                  height: 100px;
                  // padding: 15px;
                  margin: 15px;
                  p {
                    font-size: 20px;
                    line-height: 100px;
                  }
                }
                svg {
                  font-size: 70px;
                  border: 1px solid black;
                  border-radius: 50%;
                  padding: 15px;
                  margin: 15px;
                }
                p {
                  font-size: 20px;
                  margin: 0;
                  white-space: nowrap;
                  color: black !important;
                }
              }

              .skill_set_box.html {
                color: #ff7000;
                svg {
                  border: 1px solid #ff7000;
                }
              }
              .skill_set_box.css {
                color: #0055ff;
                svg {
                  border: 1px solid #0055ff;
                }
              }
              .skill_set_box.js {
                color: #dbde0b;
                svg {
                  border: 1px solid #dbde0b;
                }
              }
              .skill_set_box.react {
                color: #00bdff;
                svg {
                  border: 1px solid #00bdff;
                }
              }
              .skill_set_box.scss {
                color: #ff00b2;
                svg {
                  border: 1px solid #ff00b2;
                }
              }
              .skill_set_box.redux {
                color: #b900ff;
                svg {
                  border: 1px solid #b900ff;
                }
              }
              .skill_set_box.node {
                color: #0fff00;
                svg {
                  border: 1px solid #0fff00;
                }
              }
              .skill_set_box.mysql {
                color: #0b48de;
                svg {
                  border: 1px solid #0b48de;
                }
              }
            }
          }
          .skill_detail.first {
            border: none !important;
            margin-bottom: 20px;
          }
        }
      }
    }
    .skill_btn {
      display: none;
      position: absolute;
      top: 86%;
      left: 56%;
      // transform: translate(-50%, -50%);
      background-color: transparent;
      // border: none;
      border: 2px solid #2471d8;
      padding: 5px 7px;
      border-radius: 50%;
      outline: none;
      cursor: pointer;
      font-size: 28px;
      line-height: 26px;
      transition: all 0.2s ease-in-out;
      // animation: blink 1s infinite;
      &:hover {
        border: 2px solid #ff3c1d;
        padding: 6px 8px;
        // font-size: 30px;
        svg {
          color: #ff3c1d;
        }
      }
      svg {
        color: #2471d8;
      }
    }
  }
}

@media #{$phone} {
  .skill {
    font-family: "Do Hyeon", sans-serif;

    background-color: #fff;

    display: flex;
    justify-content: center;
    margin-top: 20px;
    padding-top: 20px;
    // align-items: center;
    height: 100vh;
    padding: 100px 0px;
    .skill_container {
      display: flex;
      align-items: center;
      height: 100vh;

      .skill_me {
        display: flex;
        flex-direction: column;
        align-items: center;
        .skill_box {
          display: flex;
          height: 400px;
          .skill_detail {
            padding: 0 100px;
            // width: 200px;
            // border-left: 2px solid #999999;
            text-align: center;
            img {
              width: 150px;
              height: 150px;
              background-color: black;
              border-radius: 50%;
            }

            h1 {
              color: #2471d8;
              text-transform: uppercase;
              font-size: 30px;
              white-space: nowrap;
            }

            .skill_set {
              display: flex;
              .skill_set_box {
                .noSvg {
                  border: 1px solid black;
                  border-radius: 50%;
                  width: 100px;
                  height: 100px;
                  // padding: 15px;
                  margin: 15px;
                  p {
                    font-size: 20px;
                    line-height: 100px;
                  }
                }
                svg {
                  font-size: 70px;
                  border: 1px solid black;
                  border-radius: 50%;
                  padding: 15px;
                  margin: 15px;
                }
                p {
                  font-size: 20px;
                  margin: 0;
                  white-space: nowrap;
                  color: black !important;
                }
              }

              .skill_set_box.html {
                color: #ff7000;
                svg {
                  border: 1px solid #ff7000;
                }
              }
              .skill_set_box.css {
                color: #0055ff;
                svg {
                  border: 1px solid #0055ff;
                }
              }
              .skill_set_box.js {
                color: #dbde0b;
                svg {
                  border: 1px solid #dbde0b;
                }
              }
              .skill_set_box.react {
                color: #00bdff;
                svg {
                  border: 1px solid #00bdff;
                }
              }
              .skill_set_box.scss {
                color: #ff00b2;
                svg {
                  border: 1px solid #ff00b2;
                }
              }
              .skill_set_box.redux {
                color: #b900ff;
                svg {
                  border: 1px solid #b900ff;
                }
              }
              .skill_set_box.node {
                color: #0fff00;
                svg {
                  border: 1px solid #0fff00;
                }
              }
              .skill_set_box.mysql {
                color: #0b48de;
                svg {
                  border: 1px solid #0b48de;
                }
              }
            }
          }
          .skill_detail.first {
            border: none !important;
            margin-bottom: 20px;
          }
        }
      }
    }
    .skill_btn {
      display: none;
    }
  }
}
@keyframes down-motion {
  from {
    transform: translateY(0);
  }
  to {
    transform: translateY(15px);
  }
}
